data.pth (torch, 6634 bytes, 6 tensors)

l1.weight f4 [8, 77]
0.3647039 0.24790153 0.2568365 -0.6815633 0.10036583 0.31539452 -0.84969413 -0.33068657
0.5115319 0.3221713 -0.61303765 0.2117679 0.31602228 0.3409187 -1.0747317 -0.3594473
0.0076066707 -1.1984948 0.04618468 0.73431873 1.4749659 0.28311464 0.55608505 -0.69654197
0.1403603 0.46451363 -0.026500868 0.5207259 0.24432735 -0.69912344 0.6162339 -0.17573173
0.044357147 0.24188212 0.18422116 0.14155033 0.06184259 0.42781767 0.28619984 0.064387396
-0.035112035 -0.065632865 0.116197295 -0.19010663 0.16850846 -0.3165343 -0.3807036 0.50784945
0.34984857 0.19151315 -1.1984613 -0.6931751 0.33073625 0.1610268 0.63345104 0.352615
-0.92826366 -0.058851607 0.25944284 -0.20922785 0.40700305 -0.021298738 0.41678643 0.5011564
0.19928125 0.70263165 0.3027255 0.56339896 0.17086631 0.110723145 0.09929752 0.11729849
0.3111543 0.37718794 -1.1085154 -0.9521283 0.4430062 -0.22631082 -0.14763036 -0.25368086
0.3144498 0.54831254 -0.22042757 0.7866387 0.19334817 -0.015392963 -0.31388468 0.41345227
-0.297279 -0.11370509 -0.16596986 -0.8228362 0.26601118 -0.28894317 0.4340938 0.5765093
0.4548239 0.9556939 -0.00042329475 0.34515736 0.40021265 0.03863668 0.38972342 0.5578384
-0.057187386 -0.3180851 0.36913833 0.5618682 -0.47748813 0.82133657 -0.14254141 0.7421101
0.8122407 0.7927222 0.33836475 0.3670463 0.53217614 -0.646938 -0.1557447 0.33431157
0.06549992 0.10036444 0.34708306 0.2574521 0.38372558 -0.020752706 -0.043095823 0.39857137
0.38433868 0.33583075 0.30163696 0.41396695 -0.069149666 0.33134472 0.01130352 -0.004584454
-0.705324 0.35044038 -0.09720594 0.27004826 0.9498304 -0.123146705 -0.4394251 -0.06343494
0.61247724 -0.14189635 0.059830926 0.32827613 0.04453869 0.32136083 0.38220534 0.33970895
0.47044206 -0.07567817 -0.31247264 0.4053774 -0.5267877 0.73076653 -0.04268188 -0.0865828
0.83998966 0.45471856 -0.21916573 -0.31880203 0.7133091 -0.5130973 -0.27896237 -0.076968946
1.4122332 0.47621617 -0.06301741 0.58469903 -0.07621824 -0.49725175 -0.8797005 0.25927794
-0.16280216 0.6510208 0.40056986 -0.14355472 -0.116486356 -0.22320959 -0.36772606 0.71664786
-0.5927035 0.3850132 -0.09725933 -0.20890611 0.08059273 0.041322134 0.006460684 -0.09129804
0.18770643 -0.06185613 0.24943991 0.588603 0.14937285 0.43392098 -0.0011573791 0.5211098
0.38372537 -0.17812616 -0.067499906 0.5084541 0.5343184 0.68687797 -0.12143227 0.1601744
-0.13470156 -0.1776071 0.6025229 0.019086786 0.035787966 0.28642374 -0.2179085 0.43280265
-0.22938603 0.2520016 0.4785637 -0.6513918 -0.13709429 -0.22691731 -0.006714001 -0.05934115
0.4399348 0.3901048 -0.18209489 0.3686326 0.49815738 0.6778982 -0.048708994 -0.36576435
-0.16313101 0.42836022 0.5670651 0.10890587 0.43762836 0.4297145 0.33700264 0.021414768
0.36236382 0.60918957 0.48798785 0.38440463 0.94115865 1.1180317 0.49649578 0.31599262
0.40672854 0.19447748 -0.7260803 -0.92884094 0.3983806 -0.35757568 0.6573617 -0.14805718
00000000: 78ba ba3e e6d9 7d3e 1380 833e ef7a 2ebf
00000010: 9a8c cd3d 647b a13e 8e85 59bf c04f a9be
00000020: c1f3 023f a3f3 a43e 09f0 1cbf afd9 583e
00000030: accd a13e e58c ae3e cf90 89bf 7a09 b8be
00000040: 6141 f93b 4768 99bf 262c 3d3d 50fc 3b3f
00000050: afcb bc3f 67f4 903e 975b 0e3f 9350 32bf
00000060: 9cba 0f3e bbd4 ed3e 5918 d9bc 4b4e 053f
00000070: f330 7a3e c1f9 32bf 81c1 1d3f 05f3 33be
00000080: d7af 353d f2af 773e 79a4 3c3e 92f2 103e
00000090: a84e 7d3d eb0a db3e c988 923e 8add 833d
000000a0: a3d1 0fbd 866a 86bd d9f8 ed3d 50ab 42be
000000b0: 7b8d 2c3e c910 a2be 95eb c2be 6c02 023f
000000c0: 5a1f b33e 061c 443e 2e67 99bf ec73 31bf
000000d0: 4356 a93e 36e4 243e d929 223f f489 b43e
000000e0: b0a2 6dbf 620e 71bd b1d5 843e d33f 56be
000000f0: b462 d03e b17a aebc 0865 d53e c94b 003f
00000100: 6210 4c3e abdf 333f d6fe 9a3e ea3a 103f
00000110: 94f7 2e3e d1c2 e23d 805c cb3d 313a f03d
00000120: 9e4f 9f3e c71e c13e d5e3 8dbf aebe 73bf
00000130: b5d1 e23e 06be 67be 6a2c 17be 75e2 81be
00000140: 90ff a03e 365e 0c3f c4b7 61be 2761 493f
00000150: 10fd 453e c432 7cbc 7eb5 a0be 04b0 d33e
00000160: f434 98be 37de e8bd 01f4 29be 65a5 52bf
00000170: 9e32 883e 5cf0 93be 8b41 de3e 1d96 133f
00000180: aede e83e 5ba8 743f a9ed ddb9 77b8 b03e
00000190: ace8 cc3e 7f41 1e3d d489 c73e 7fce 0e3f
000001a0: 523d 6abd 0ddc a2be b3ff bc3e 98d6 0f3f
000001b0: 5379 f4be 1d43 523f 60f6 11be edfa 3d3f
000001c0: 02ef 4f3f d8ef 4a3f 253e ad3e 7eed bb3e
000001d0: b23c 083f bb9d 25bf 8a7b 1fbe e32a ab3e
000001e0: d224 863d df8b cd3d dfb4 b13e c3d0 833e
000001f0: ae77 c43e 9401 aabc 3f85 30bd 8c11 cc3e
00000200: 0ac8 c43e 02f2 ab3e 2970 9a3e 7af3 d33e
00000210: 579e 8dbd 04a6 a93e 6632 393c 3039 96bb
00000220: 1d90 34bf ec6c b33e e813 c7bd c443 8a3e
00000230: 1628 733f 5734 fcbd 54fc e0be 2eea 81bd
00000240: 4fcb 1c3f 474d 11be 4611 753d cf13 a83e
00000250: 346e 363d 6889 a43e 6bb0 c33e 55ee ad3e
00000260: c8dd f03e 28fd 9abd 6afc 9fbe a08d cf3e
00000270: 8fdb 06bf 8413 3b3f 32d3 2ebd 5352 b1bd
00000280: 9009 573f dfd0 e83e fb6c 60be 053a a3be
00000290: 6d9b 363f 585a 03bf 28d4 8ebe e5a1 9dbd
000002a0: 0fc4 b43f 9bd2 f33e 460f 81bd d6ae 153f
000002b0: 4f18 9cbd c897 febe 0d34 61bf 14c0 843e
000002c0: 9cb5 26be 4da9 263f 7e17 cd3e 0200 13be
000002d0: 6690 eebd 0e91 64be 9746 bcbe 3c76 373f
000002e0: 6bbb 17bf 7320 c53e e62f c7bd 7ceb 55be
000002f0: cd0d a53d 6641 293d 25b4 d33b 77fa babd
00000300: 1d36 403e da5c 7dbd 2d6d 7f3e b0ae 163f
00000310: 32f5 183e e42a de3e 33b3 97ba 7467 053f
00000320: a777 c43e b466 36be 643d 8abd 0c2a 023f
00000330: 17c9 083f 3cd7 2f3f 7bb1 f8bd c204 243e
00000340: 35ef 09be a3de 35be f13e 1a3f e45b 9c3c
00000350: 6796 123d 22a6 923e 6823 5fbe 4f98 dd3e
00000360: 2ce4 6abe 5b06 813e 4d06 f53e 9dc1 26bf
00000370: 7262 0cbe 035d 68be 1f01 dcbb b50f 73bd
00000380: 223f e13e d1bb c73e 1577 3abe 6abd bc3e
00000390: 7c0e ff3e bd8a 2d3f 1583 47bd 7745 bbbe
000003a0: d10b 27be 0852 db3e 2e2b 113f 0a0a df3d
000003b0: d310 e03e 8a03 dc3e 9c8b ac3e 066e af3c
000003c0: c087 b93e d9f3 1b3f 8bd9 f93e afd0 c43e
000003d0: c6ef 703f aa1b 8f3f b234 fe3e c9c9 a13e
000003e0: b93e d03e 1b25 473e 66e0 39bf 85c8 6dbf
000003f0: 8bf8 cb3e 2914 b7be db48 283f 4d9c 17be

l1.bias f4 [8]
0.697301 0.8232325 0.87929493 0.9784043 0.46521738 0.85972184 0.7216525 0.9012862
00000000: 5182 323f 5dbf 523f 7919 613f b478 7a3f
00000010: f930 ee3e bb16 5c3f 38be 383f b1ba 663f

l2.weight f4 [8, 8]
-1.0560056 0.51856095 1.6027875 1.0051392 -0.9165252 0.28932762 -0.15227817 0.5374085
0.8504587 1.8141468 -0.118051715 0.4105876 -0.5985343 1.1960878 -1.557587 0.0019103312
1.0911216 1.5902829 0.037242617 -0.3908901 -0.8961608 -0.6649785 1.3087987 1.7660662
1.4108481 0.8581797 -1.3621336 -0.5608441 -0.40373653 2.0795937 -0.8296133 1.3253801
-0.026034042 -0.23419026 0.9790447 1.7501945 1.9610023 1.3187939 1.7366762 -1.8277109
-1.2470121 0.17405696 1.281021 0.38021085 -0.9815854 -0.1289817 0.19571216 1.8817141
0.091612644 -0.23845829 -0.061243296 0.05749339 -0.026122034 0.037391894 -0.26804996 0.16215645
-0.7129321 1.3053523 0.77970713 0.9569253 0.07403588 -0.9090419 -0.7290352 0.7494702
00000000: 312b 87bf 69c0 043f 2428 cd3f 67a8 803f
00000010: 65a1 6abf c022 943e cfee 1bbe 9a93 093f
00000020: a9b7 593f f635 e83f 19c5 f1bd 8a38 d23e
00000030: 8b39 19bf 6819 993f 035f c7bf 1464 fa3a
00000040: dfa9 8b3f 648e cb3f b78b 183d bf22 c8be
00000050: cb6a 65bf 083c 2abf b786 a73f 750e e23f
00000060: ac96 b43f aab1 5b3f 655a aebf 7b93 0fbf
00000070: 8eb6 cebe 1018 0540 8a61 54bf 0ea6 a93f
00000080: 5845 d5bc 92cf 6fbe aca2 7a3f 6006 e03f
00000090: 2002 fb3f 3dce a83f 684b de3f 6ef2 e9bf
000000a0: 189e 9fbf fd3b 323e 7ff8 a33f ffaa c23e
000000b0: 2e49 7bbf c713 04be c568 483e 02dc f03f
000000c0: 699f bb3d 692e 74be 40da 7abd 307e 6b3d
000000d0: e0fd d5bc 3e28 193d d83d 89be 570c 263e
000000e0: b882 36bf c915 a73f e39a 473f 0ef9 743f
000000f0: 20a0 973d f8b6 68bf 0da2 3abf 47dd 3f3f

l2.bias f4 [8]
-0.02342765 0.5039893 0.61927676 0.4391342 0.6525466 0.59058666 -0.32419896 0.5951571
00000000: 58eb bfbc 7105 013f ec88 1e3f 33d6 e03e
00000010: 4b0d 273f b030 173f 68fd a5be 375c 183f

l3.weight f4 [11, 8]
0.29581305 -0.5366264 -1.941799 -1.8924017 0.4931367 0.6502922 -0.3311722 -0.051013667
-2.2305672 0.44898847 0.15996946 0.8174856 -1.9939797 -0.6002064 0.18319313 -0.564896
-1.1544257 0.44570458 -0.7597175 0.70296854 -0.23532115 -1.2902534 -0.0042962315 -1.4075787
0.49815202 -1.1382037 0.3878104 -0.62559044 -0.34714216 0.42660028 0.09859782 -1.0602645
-1.4344888 -1.1286997 0.61483973 -2.0291598 0.5520992 -0.5340269 0.017066868 0.41527516
0.06503292 -0.039301496 -0.31037405 0.50738895 -1.101872 0.29568362 0.266207 0.48998475
-0.069999516 -0.8040926 -1.4128692 -1.9082483 0.9219722 -1.7266349 -0.1549971 -1.576292
-2.0204117 -0.12888959 -1.7764317 0.121599205 0.6404848 -0.9810861 0.17146066 -0.8029863
0.59146625 -0.1277673 -0.24114332 -1.8796825 -0.72027063 0.7278207 0.156153 1.085771
-0.15746182 0.30659747 -0.5354794 -0.65839285 0.20283718 -0.50338423 -0.22452718 0.2218924
-1.581492 -1.4077088 0.69103557 0.6972607 -1.2797453 0.48834884 0.20508909 -0.49175024
00000000: cf74 973e 5960 09bf df8c f8bf 383a f2bf
00000010: 6a7c fc3e 8d79 263f 678f a9be b5f3 50bd
00000020: 9dc1 0ec0 d1e1 e53e 09cf 233e bc46 513f
00000030: ba3a ffbf 20a7 19bf fb96 3b3e 069d 10bf
00000040: 39c4 93bf 6433 e43e d97c 42bf bff5 333f
00000050: 07f8 70be 0627 a5bf 67c7 8cbb 8a2b b4bf
00000060: c80d ff3e a9b0 91bf 168f c63e b226 20bf
00000070: 9ebc b1be 5a6b da3e a7ed c93d bfb6 87bf
00000080: 549d b7bf 3b79 90bf 2366 1d3f c1dd 01c0
00000090: 6056 0d3f fdb5 08bf d1cf 8b3c f29e d43e
000000a0: fb2f 853d 9bfa 20bd 59e9 9ebe 3ee4 013f
000000b0: 240a 8dbf d863 973e 494c 883e 48df fa3e
000000c0: e85b 8fbd 03d9 4dbf e6d8 b4bf 7b41 f4bf
000000d0: 5f06 6c3f 5f02 ddbf 8fb7 1ebe f0c3 c9bf
000000e0: 6d4e 01c0 a2fb 03be 1d62 e3bf 0109 f93d
000000f0: d0f6 233f 7528 7bbf 6293 2f3e 8390 4dbf
00000100: 556a 173f 6ed5 02be 46ee 76be 7099 f0bf
00000110: a863 38bf 7552 3a3f 92e6 1f3e 8bfa 8a3f
00000120: ac3d 21be 58fa 9c3e 2e15 09bf 6f8c 28bf
00000130: 8db4 4f3e cadd 00bf 74ea 65be c337 633e
00000140: 546e cabf cd2f b4bf b5e7 303f ad7f 323f
00000150: b2ce a3bf dc08 fa3e e002 523e b0c6 fbbe

l3.bias f4 [11]
-0.4060072 -0.35581154 -0.19545463 -0.3296051 0.35976604 -0.21154344 -0.03712773 0.21799509
0.16096336 -0.36976156 0.19807753
00000000: 2de0 cfbe ee2c b6be 4225 48be 00c2 a8be
00000010: 4133 b83e d89e 58be 3f13 18bd 1b3a 5f3e
00000020: 94d3 243e 6351 bdbe d6d4 4a3e
